7767517
44 48
Input            Placeholder      0 1 Placeholder 0=128 1=128 2=3
Convolution      conv_1_Conv2D    1 1 Placeholder conv_1_Conv2D 0=16 1=3 11=3 2=1 3=1 4=1 14=1 5=1 6=432
ReLU             conv_1_Relu      1 1 conv_1_Conv2D conv_1_Conv2D_conv_1_Relu
Pooling          MaxPool2D_MaxPool 1 1 conv_1_Conv2D_conv_1_Relu MaxPool2D_MaxPool 0=0 1=2 2=2 3=0 13=0 4=0
Split            splitncnn_0      1 2 MaxPool2D_MaxPool MaxPool2D_MaxPool_splitncnn_0 MaxPool2D_MaxPool_splitncnn_1
Convolution      res_2_Conv_Conv2D 1 1 MaxPool2D_MaxPool_splitncnn_1 res_2_Conv_Conv2D 0=16 1=3 11=3 2=1 3=1 4=1 14=1 5=1 6=2304
ReLU             res_2_Conv_Relu  1 1 res_2_Conv_Conv2D res_2_Conv_Conv2D_res_2_Conv_Relu
Convolution      res_2_Conv_1_Conv2D 1 1 res_2_Conv_Conv2D_res_2_Conv_Relu res_2_Conv_1_Conv2D 0=16 1=3 11=3 2=1 3=1 4=1 14=1 5=1 6=2304
Eltwise          res_2_add        2 1 res_2_Conv_1_Conv2D MaxPool2D_MaxPool_splitncnn_0 res_2_add 0=1 -23301=0
ReLU             res_2_Relu       1 1 res_2_add res_2_add_res_2_Relu
Split            splitncnn_1      1 2 res_2_add_res_2_Relu res_2_add_res_2_Relu_splitncnn_0 res_2_add_res_2_Relu_splitncnn_1
Pooling          res_3_MaxPool2D_MaxPool 1 1 res_2_add_res_2_Relu_splitncnn_1 res_3_MaxPool2D_MaxPool 0=0 1=2 2=2 3=0 13=0 4=0
Convolution      res_3_Conv_Conv2D 1 1 res_2_add_res_2_Relu_splitncnn_0 res_3_Conv_Conv2D 0=32 1=3 11=3 2=1 3=1 4=1 14=1 5=1 6=4608
Convolution      res_3_Conv_2_Conv2D 1 1 res_3_MaxPool2D_MaxPool res_3_Conv_2_Conv2D 0=32 1=1 11=1 2=1 3=1 4=0 14=0 5=1 6=512
ReLU             res_3_Conv_Relu  1 1 res_3_Conv_Conv2D res_3_Conv_Conv2D_res_3_Conv_Relu
Convolution      res_3_Conv_1_Conv2D 1 1 res_3_Conv_Conv2D_res_3_Conv_Relu res_3_Conv_1_Conv2D 0=32 1=3 11=3 2=1 3=2 4=2 14=2 5=1 6=9216
Input            DummyData1       0 1 DummyData1
Crop             res_3_Conv_1_Conv2D_crop 2 1 res_3_Conv_1_Conv2D DummyData1 res_3_Conv_1_Conv2D_crop 0=1 1=1
Eltwise          res_3_add        2 1 res_3_Conv_1_Conv2D_crop res_3_Conv_2_Conv2D res_3_add 0=1 -23301=0
ReLU             res_3_Relu       1 1 res_3_add res_3_add_res_3_Relu
Split            splitncnn_2      1 2 res_3_add_res_3_Relu res_3_add_res_3_Relu_splitncnn_0 res_3_add_res_3_Relu_splitncnn_1
Convolution      res_4_Conv_Conv2D 1 1 res_3_add_res_3_Relu_splitncnn_1 res_4_Conv_Conv2D 0=32 1=3 11=3 2=1 3=1 4=1 14=1 5=1 6=9216
ReLU             res_4_Conv_Relu  1 1 res_4_Conv_Conv2D res_4_Conv_Conv2D_res_4_Conv_Relu
Convolution      res_4_Conv_1_Conv2D 1 1 res_4_Conv_Conv2D_res_4_Conv_Relu res_4_Conv_1_Conv2D 0=32 1=3 11=3 2=1 3=1 4=1 14=1 5=1 6=9216
Eltwise          res_4_add        2 1 res_4_Conv_1_Conv2D res_3_add_res_3_Relu_splitncnn_0 res_4_add 0=1 -23301=0
ReLU             res_4_Relu       1 1 res_4_add res_4_add_res_4_Relu
Split            splitncnn_3      1 2 res_4_add_res_4_Relu res_4_add_res_4_Relu_splitncnn_0 res_4_add_res_4_Relu_splitncnn_1
Pooling          res_5_MaxPool2D_MaxPool 1 1 res_4_add_res_4_Relu_splitncnn_1 res_5_MaxPool2D_MaxPool 0=0 1=2 2=2 3=0 13=0 4=0
Convolution      res_5_Conv_Conv2D 1 1 res_4_add_res_4_Relu_splitncnn_0 res_5_Conv_Conv2D 0=64 1=3 11=3 2=1 3=1 4=1 14=1 5=1 6=18432
Convolution      res_5_Conv_2_Conv2D 1 1 res_5_MaxPool2D_MaxPool res_5_Conv_2_Conv2D 0=64 1=1 11=1 2=1 3=1 4=0 14=0 5=1 6=2048
ReLU             res_5_Conv_Relu  1 1 res_5_Conv_Conv2D res_5_Conv_Conv2D_res_5_Conv_Relu
Convolution      res_5_Conv_1_Conv2D 1 1 res_5_Conv_Conv2D_res_5_Conv_Relu res_5_Conv_1_Conv2D 0=64 1=3 11=3 2=1 3=2 4=2 14=2 5=1 6=36864
Input            DummyData2       0 1 DummyData2
Crop             res_5_Conv_1_Conv2D_crop 2 1 res_5_Conv_1_Conv2D DummyData2 res_5_Conv_1_Conv2D_crop 0=1 1=1
Eltwise          res_5_add        2 1 res_5_Conv_1_Conv2D_crop res_5_Conv_2_Conv2D res_5_add 0=1 -23301=0
ReLU             res_5_Relu       1 1 res_5_add res_5_add_res_5_Relu
Pooling          pool_9_AvgPool   1 1 res_5_add_res_5_Relu pool_9_AvgPool 0=1 1=7 2=2 3=0 13=0 4=0
Input            DummyData3       0 1 DummyData3
Crop             pool_9_AvgPool_crop 2 1 pool_9_AvgPool DummyData3 pool_9_AvgPool_crop 0=0 1=0
Reshape          flatten_flatten_Reshape 1 1 pool_9_AvgPool_crop flatten_flatten_Reshape 0=1600 1=1 2=-233 3=0
InnerProduct     fc1_MatMul       1 1 flatten_flatten_Reshape fc1_MatMul 0=256 1=1 2=409600
ReLU             fc1_Relu         1 1 fc1_MatMul fc1_MatMul_fc1_Relu
InnerProduct     output_MatMul    1 1 fc1_MatMul_fc1_Relu output_MatMul 0=7 1=1 2=1792
Softmax          Softmax          1 1 output_MatMul Softmax 0=0
